…
number of classes: 2
number of data: 1663
number of data in each class: {0 = 469, 1 = 1194}
ratios of classes: {0 = 0.2820, 1 = 0.7180}
class_weight: {0 = 1.7729, 1 = 0.6964}


Training----------------
>> build model... 
Model: "simplecnn"
_________________________________________________________________
Layer (type)                 Output Shape              Param #   
=================================================================
input_sp (InputLayer)        [(None, 96, 96)]          0         
_________________________________________________________________
featurewise_std (Normalizati (None, 96, 96)            18433     
_________________________________________________________________
insert_channel_axis (InsertC (None, 96, 96, 1)         0         
_________________________________________________________________
blocks (Sequential)          (None, 12, 12, 16)        7680      
_________________________________________________________________
globalavgpool (GlobalAverage (None, 16)                0         
_________________________________________________________________
dense (Dense)                (None, 16)                272       
_________________________________________________________________
fc_batchnorm (BatchNormaliza (None, 16)                64        
_________________________________________________________________
fc_dropout (Dropout)         (None, 16)                0         
_________________________________________________________________
fc_prelu (PReLU)             (None, 16)                1         
_________________________________________________________________
dense_out (Dense)            (None, 1)                 17        
_________________________________________________________________
probability (Sigmoid_)       (None, 1)                 0         
=================================================================
Total params: 26,467
Trainable params: 7,906
Non-trainable params: 18,561
_________________________________________________________________
╒════╤════════════════════════════════════════════════╤═════════════╤═══════════╤══════════════╕
│    │ name                                           │ trainable   │   n_train │   n_nontrain │
…
